dqn_Movement_20_Jul_2PM_s200000.pth (torch, 4463 bytes, 4 tensors)

net.0.weight f4 [64, 4]
0	0x3f580e98	0.8439727
1	0x408763d3	4.2309356
2	0x40d291ae	6.580283
3	0x406b2fab	3.6747844
4	0xbe643567	-0.22285996
5	0xc16b17c8	-14.693306
6	0x3e02ab2f	0.12760614
7	0x3e14f91d	0.14548154
8	0x3fb4ef69	1.4135562
9	0x4023dc97	2.5603387
10	0x40d9201a	6.7851686
11	0xbf89e1d1	-1.0772039
12	0xbf8f29ac	-1.1184592
13	0xc0b35e78	-5.605282
14	0xbf5ddd87	-0.8666615
15	0x3fad3d12	1.3534262
16	0x3fd605a0	1.6720467
17	0xbe8607d6	-0.26177853
18	0x40bd008d	5.906317
19	0xbf346686	-0.7046894
20	0x3ea13312	0.31484276
21	0x4164c418	14.297874
22	0x3dafd22c	0.08585009
23	0xbe81b258	-0.25331378
24	0xbf619b8c	-0.8812797
25	0xc087e5f4	-4.2468204
26	0xc0c54378	-6.164486
27	0xc05da1b9	-3.4629958
28	0x4007e777	2.1235025
29	0xbcdf746e	-0.027277198
30	0xbcc61a6d	-0.024182523
31	0x3cc49eee	0.024001565
32	0x3fa34471	1.2755262
33	0x3f147a7f	0.57999414
34	0xbe0e5d8d	-0.13902874
35	0xbf627e1a	-0.88473666
36	0xbd00625c	-0.031343803
37	0x3f2afc6a	0.66791403
38	0x3d13cabd	0.03608202
39	0x3e45dd4a	0.19322696
40	0xbfda2800	-1.7043457
41	0x3f06c5df	0.5264568
42	0xc09bf205	-4.8732934
43	0x3f01c182	0.50685894
44	0xbf4935d0	-0.78597736
45	0xc089af3d	-4.3026414
46	0xc0e249c5	-7.071505
47	0xc07a2853	-3.9087112
48	0x3f55a4b0	0.8345442
49	0xbfa0fddb	-1.257747
50	0xc09a915a	-4.830243
51	0xbf92b395	-1.1461054
52	0x3f6c33a9	0.9226633
53	0x408d256a	4.410817
54	0x40d01c48	6.5034523
55	0x406fa093	3.7441757
56	0xbe6d062a	-0.23146883
57	0x41836d74	16.428444
58	0x3eeed48c	0.46646535
59	0x3ebfb5ea	0.37443477
60	0xbfadf58d	-1.3590561
61	0xbfc5a041	-1.5439531
62	0xc0d4dfdf	-6.652328
63	0x3efde032	0.4958511
64	0x3f5627c9	0.8365446
65	0x408e7200	4.451416
66	0x40de831e	6.9535055
67	0x405cfaad	3.4528
68	0x3ff26292	1.8936331
69	0xbfdac1e4	-1.7090421
70	0x3ecf9888	0.4054606
71	0xbf10abf8	-0.56512403
72	0xbfa95f81	-1.323227
73	0x417355a2	15.208406
74	0x3f7ce902	0.9879304
75	0x3f8009e4	1.0003018
76	0x3f8549b6	1.041312
77	0xbf5f384d	-0.87195283
78	0x4040452f	3.0042226
79	0xbec3ef3a	-0.38268453
80	0x3e9dc783	0.30816278
81	0x416d7cd2	14.842974
82	0xbc3fc0c4	-0.011703674
83	0xbe81475e	-0.2524976
84	0x42181e79	38.02976
85	0xbfcf7b9f	-1.6209601
86	0x3ea7de4d	0.3278679
87	0xc0252787	-2.5805376
88	0xbf4d4faf	-0.8019971
89	0xc0901243	-4.502229
90	0xc0e52c59	-7.1616635
91	0xc0741bd0	-3.8141975
92	0x40373eea	2.863215
93	0x3d8e1e40	0.069393635
94	0xbf220964	-0.6329558
95	0xc025a581	-2.5882266
96	0xbf5a1e36	-0.8520235
97	0xc084e3e5	-4.152819
98	0xc0e1906f	-7.048881
99	0xc0783a0c	-3.878543
100	0xbfb4db91	-1.4129506
101	0xbf555e83	-0.8334734
102	0x3ff23652	1.8922827
103	0x3f6fadd7	0.93624634
104	0x3debe7ad	0.11518798
105	0x416d1c50	14.819412
106	0x3f479c73	0.779731
107	0xbf46780a	-0.77526915
108	0xbf40fd4a	-0.7538649
109	0xc08bbbdd	-4.3666825
110	0xc0df0cd0	-6.970314
111	0xc059af5d	-3.4013283
112	0xc205c369	-33.44083
113	0x3f4de4e3	0.8042738
114	0xbf8234c3	-1.0172352
115	0x3f45957b	0.77181214
116	0xc0043831	-2.0659297
117	0xbd85be6b	-0.0653046
118	0x3dddf6f3	0.108381175
119	0xbbf6422a	-0.0075152116
120	0x3e6f8d7c	0.23393816
121	0x41802594	16.018349
122	0x3f4ede66	0.80808103
123	0xbf604b9d	-0.87615377
124	0xc01ccb66	-2.4499145
125	0xbf724fdb	-0.946531
126	0x3dfb2ea6	0.12264757
127	0x3fdd76f4	1.7301927
128	0x3f4d0e6a	0.8010012
129	0x4085f3ea	4.1860247
130	0x40e905ca	7.2819567
131	0x4079eb35	3.904981
132	0xbede488b	-0.4341472
133	0x4186017f	16.75073
134	0xbed00dad	-0.40635434
135	0xbf0177e5	-0.5057357
136	0xbeb36ad8	-0.35042453
137	0x3fa710ae	1.3051965
138	0xbfc2f1bd	-1.5230023
139	0xbc424f8f	-0.011859789
140	0xbf69cc7e	-0.91327655
141	0xc08d485b	-4.4150825
142	0xc0cd44c0	-6.4146423
143	0xc061609a	-3.521521
144	0xbe7191f2	-0.2359083
145	0x415f88c1	13.970887
146	0xc006ba4e	-2.1051211
147	0x3db9521e	0.09048866
148	0x3f5db2cd	0.86600953
149	0x4085bdac	4.1794033
150	0x40dd641d	6.918471
151	0x405a66c3	3.412522
152	0xbe97bbe9	-0.29635552
153	0x417d4dd5	15.831502
154	0xbeba5996	-0.36396474
155	0xbecf3eda	-0.4047764
156	0x3e1c2b27	0.15250836
157	0x417a84a9	15.657388
158	0xbfd56617	-1.667178
159	0x3e493729	0.19649948
160	0xbe95b500	-0.29239655
161	0x418b8b72	17.443089
162	0xbed3be2d	-0.4135603
163	0xbee28597	-0.44242546
164	0xc001b759	-2.0268157
165	0x3c26c8ed	0.01017974
166	0x3d3c3eed	0.04595845
167	0x3c4eb215	0.0126157
168	0x3f5c58e2	0.86073124
169	0x409b34b8	4.8501854
170	0x40e84126	7.2579527
171	0x4073857f	3.805023
172	0x3f0f77f6	0.5604242
173	0xbf306715	-0.6890729
174	0xbf12f034	-0.5739777
175	0xbfa09099	-1.2544128
176	0x3f4f3ab7	0.80948967
177	0x408a2228	4.3166695
178	0x40d79e12	6.7380457
179	0x40719463	3.7746818
180	0xbf699c91	-0.91254526
181	0xc09257c8	-4.5732155
182	0xc0e55575	-7.166682
183	0xc06b8740	-3.68013
184	0x3d5d9707	0.05409911
185	0xc178708d	-15.527478
186	0xbea706fb	-0.32622513
187	0x3f0a3f91	0.54003245
188	0xbf232c20	-0.63739204
189	0x3f7f0a7a	0.9962536
190	0x3dd68c96	0.104760334
191	0x3f75a246	0.95950735
192	0xbf5b190f	-0.8558511
193	0xc08558ce	-4.1670904
194	0xc0dcc7a6	-6.899371
195	0xc05f8c51	-3.4929392
196	0x3f93351c	1.1500583
197	0xbf143dd6	-0.57906854
198	0x3f1883b6	0.59575975
199	0xbf021aaa	-0.50821936
200	0x3f57c7dd	0.8428934
201	0x3d83dc3e	0.06438492
202	0x3e0bafde	0.13641307
203	0xbf9ac1ad	-1.2090355
204	0xbe0c9690	-0.1372931
205	0x3f22f7ac	0.6365917
206	0x3f6b066b	0.9180667
207	0x3f912839	1.13404
208	0x3e12da9d	0.14341207
209	0xc1503373	-13.012561
210	0xbfe5af7d	-1.794418
211	0xbd7dd600	-0.061971664
212	0x3cb11586	0.021616708
213	0xbfa34a08	-1.2756968
214	0xc0b28a1e	-5.57936
215	0xbea13b38	-0.31490493
216	0x3df75081	0.12075902
217	0x414ce69c	12.806301
218	0x3e00067a	0.1250247
219	0x3f161c7a	0.586372
220	0xbf67dc65	-0.9057067
221	0xc06f419d	-3.7383797
222	0xc0e3c867	-7.118213
223	0xc0623d94	-3.5350084
224	0x3f28defa	0.65965235
225	0xbfc2e1c5	-1.5225149
226	0x3ea81ae0	0.32833004
227	0xbf16afc6	-0.5886196
228	0x3ed18559	0.4092205
229	0x4156bf0f	13.421645
230	0x3f966d38	1.1752081
231	0xbfb62230	-1.4229183
232	0xbea01003	-0.31262216
233	0x41799c74	15.600697
234	0xbeb78b01	-0.3584824
235	0xbf2a3cc6	-0.6649898
236	0x3e7ff21b	0.249947
237	0xbf11860b	-0.5684516
238	0xbe99564f	-0.2994866
239	0xbf61c493	-0.88190573
240	0xbf1d5719	-0.61461025
241	0x3f6a4aa3	0.91520137
242	0xbf8da275	-1.1065203
243	0x3e8f6876	0.28009385
244	0x3f4e8932	0.80678093
245	0x4088c72e	4.274314
246	0x40e7a89b	7.2393317
247	0x40753ebb	3.8319538
248	0xbfbd4c35	-1.4788882
249	0xbf079fab	-0.5297801
250	0xc08562a0	-4.168289
251	0x3f90fcb9	1.1327125
252	0x3f58bf72	0.8466712
253	0x4090080f	4.5009837
254	0x40e237f7	7.0693316
255	0x4061e2a4	3.529458

net.0.bias f4 [64]
0	0x3f944551	1.1583654
1	0x3f32c0f5	0.6982568
2	0x3fb3c15d	1.4043385
3	0x3fe6ebd2	1.8040717
4	0x407dcce1	3.9656298
5	0xc02f9038	-2.7431774
6	0xbfd2082f	-1.6408747
7	0xc15f14ed	-13.942609
8	0xc099e2d0	-4.808937
9	0xc06b7007	-3.6787126
10	0xc07e4ce1	-3.9734423
11	0xbe94590e	-0.28974193
12	0xbd9d1e67	-0.076718144
13	0x3f98c2fb	1.1934503
14	0xc0c2955b	-6.080732
15	0xc03a8188	-2.914156
16	0x3f08f294	0.53495145
17	0x3ff7ba4f	1.9353732
18	0x3ee6dee2	0.4509192
19	0x40321784	2.7826853
20	0xbfdb427a	-1.7129662
21	0xc05768da	-3.3657746
22	0xbdb39b28	-0.08769828
23	0xc006befb	-2.1054065
24	0xbed06ab5	-0.4070641
25	0x3ff279ab	1.894338
26	0xbfd02da0	-1.6263924
27	0xbeff8d79	-0.49912623
28	0x40205e70	2.505764
29	0x41581a99	13.506494
30	0xbfb5fedd	-1.4218403
31	0x40ef79e8	7.483631
32	0xbc6c9f07	-0.014442212
33	0xc05647f6	-3.3481421
34	0x4077663b	3.8656147
35	0xbfac7559	-1.3473312
36	0x3f6dce62	0.9289304
37	0x3f36b245	0.7136577
38	0xc0722f17	-3.7841241
39	0xbeaf8753	-0.34282932
40	0xc0876ccf	-4.2320323
41	0x41527dc0	13.155701
42	0xbdd1f5f6	-0.102519915
43	0x401c5bee	2.443111
44	0x3f59eb8a	0.8512503
45	0xbe06aafe	-0.13151166
46	0x40026272	2.0372586
47	0xc0155865	-2.3335202
48	0xbf3170f7	-0.69312996
49	0xbfa78bcc	-1.3089538
50	0x408e4675	4.4461007
51	0xc08be315	-4.37147
52	0x3fbe81f8	1.4883413
53	0xbfef37ee	-1.8688943
54	0xc03f7055	-2.9912312
55	0xbf138ef4	-0.57640004
56	0x40764423	3.8479087
57	0xbf4ceef2	-0.800521
58	0xc056af6e	-3.3544574
59	0x4088282d	4.2549043
60	0x4054e637	3.3265512
61	0x3d606f9b	0.054793935
62	0xc048eb1c	-3.13935
63	0x3e96ddb6	0.29466027

net.2.weight f4 [5, 64]
0	0xbefd3bc4	-0.4945966
1	0x3e14e579	0.14540662
2	0xc0752f36	-3.8310065
3	0x3fc7b2c4	1.560143
4	0xc05aa1a9	-3.416117
5	0x3ee91a99	0.45528105
6	0x3ec2defe	0.38060755
7	0x3f5fde6e	0.87448776
8	0xc0cb6eef	-6.3572917
9	0x412b521f	10.707549
10	0x407c423e	3.941543
11	0x3ee1ecd0	0.44125986
12	0x409acc62	4.837449
13	0xbebbf122	-0.36707407
14	0x3fb06b15	1.3782679
15	0x407113c9	3.7668326
16	0xbeb58962	-0.35456377
17	0xc10b3c69	-8.702249
18	0x3f4a184b	0.7894332
19	0x3e9f4c43	0.3111287
20	0x3e915ebc	0.2839259
21	0xc12df7e1	-10.873017
22	0x3eb20f6e	0.34777397
23	0xc0358087	-2.8359697
24	0x3eea4859	0.45758322
25	0x405e4321	3.4728472
26	0x3d26cd02	0.040722854
27	0x3eb2bb3b	0.3490847
28	0x4137b0c2	11.480654
29	0xbe950891	-0.29108098
30	0x3e2ad9a3	0.16684584
31	0x40d23ef4	6.5701847
32	0xbef42dc7	-0.47691175
33	0x3ef5493a	0.4790743
34	0x41018b99	8.096581
35	0x3eac3414	0.33633482
36	0xc0251f14	-2.5800219
37	0xbebc96d9	-0.36833838
38	0x3eea69be	0.457838
39	0xbf8fd7d0	-1.1237736
40	0x3ef71ec7	0.4826567
41	0xbfc2cb5d	-1.5218312
42	0xbecda035	-0.4016129
43	0x4045c2f0	3.090023
44	0xbee5bc2f	-0.44870135
45	0x3eba5112	0.36389977
46	0xbe985941	-0.29755595
47	0x40e509c3	7.1574416
48	0x3e9d9673	0.30778846
49	0xc126c757	-10.423667
50	0xc0b244f7	-5.5709186
51	0xbe9eb3e6	-0.30996627
52	0xbfbd166e	-1.477247
53	0x402dec2d	2.71754
54	0x3fede6b8	1.8586035
55	0x3f095e37	0.53659385
56	0xc14efef1	-12.937242
57	0xbef4799f	-0.4774904
58	0x3f029de4	0.5102217
59	0xc14f5776	-12.958853
60	0x41363b24	11.389439
61	0xbee610f7	-0.44934818
62	0x400ff004	2.2490244
63	0xbe900b07	-0.28133413
64	0xc0a9ace8	-5.3023567
65	0xc0c8c6e6	-6.2742796
66	0xc0893ad6	-4.288432
67	0xc0572e55	-3.362203
68	0xc0ff8098	-7.9844475
69	0x40d0aa77	6.5208087
70	0x40b001d3	5.5002227
71	0x3f919dac	1.1376243
72	0xc0d8c5c9	-6.7741437
73	0x414f4a62	12.95566
74	0x40e1b60d	7.053473
75	0x40ae88d9	5.454205
76	0x404b994d	3.1812317
77	0xc0a80d51	-5.2516255
78	0x3f8e0198	1.1094236
79	0x40998bea	4.7983294
80	0xc0acb48c	-5.3970394
81	0xc14b5df6	-12.71044
82	0x40d01330	6.502342
83	0xc0e28496	-7.078685
84	0x40ca47b7	6.3212543
85	0xc05fd2b0	-3.4972343
86	0x40b0f17d	5.5294785
87	0xc0222b6e	-2.5339007
88	0x40af13b8	5.471157
89	0x40382d5d	2.8777688
90	0x40c78063	6.234422
91	0x40ad7731	5.4207997
92	0x409da7dc	4.9267406
93	0xbe6b3431	-0.22969128
94	0x40ca8428	6.3286324
95	0x40aaa1ec	5.332266
96	0xc0ae1f5a	-5.441327
97	0x40c5820e	6.172126
98	0x40bbd0d1	5.8692403
99	0x40a93bea	5.2885637
100	0x408ee710	4.465706
101	0xc0afaf22	-5.4901285
102	0x40cc9208	6.392826
103	0x40b96d48	5.79459
104	0x40d17848	6.545933
105	0x3e49fedb	0.19726126
106	0xc0ac00fe	-5.375121
107	0x408f97ff	4.487304
108	0xc0abe61e	-5.3718405
109	0x40ac71af	5.3888774
110	0xc0b5f779	-5.686459
111	0x40e9c901	7.3057866
112	0x40abf26d	5.373343
113	0xc0d2124f	-6.564735
114	0xc168a4fa	-14.5402775
115	0xc0b9671d	-5.793837
116	0xc0d66eb7	-6.701015
117	0x409142ab	4.539388
118	0x40d434ae	6.6314306
119	0x40ac492d	5.3839326
120	0xc1145670	-9.271103
121	0x40b2f0f0	5.5919113
122	0x40c96396	6.2934065
123	0xc0b68cf3	-5.7047057
124	0x40ce6311	6.449593
125	0xc0ae771d	-5.45204
126	0x40e14769	7.039967
127	0xc0aefa92	-5.468087
128	0xc0682cf6	-3.6277442
129	0x3f7df922	0.9920827
130	0xc0b39b91	-5.61274
131	0x406d4f74	3.7079744
132	0xc0c650a9	-6.197346
133	0xbf480d03	-0.78144854
134	0x406391b3	3.5557678
135	0x403e1f59	2.9706633
136	0xc135004f	-11.312575
137	0x40dfeb59	6.997479
138	0x40c200f8	6.0626183
139	0x40704161	3.7539904
140	0x40aa596a	5.323415
141	0xc0594846	-3.3950362
142	0x402103d1	2.515858
143	0x40c43dfb	6.132566
144	0xc06af0a9	-3.6709387
145	0xc10695df	-8.41159
146	0x405602a8	3.3439121
147	0xc087edac	-4.2477627
148	0xbf27b906	-0.655167
149	0x4230f817	44.242275
150	0x40753929	3.8316138
151	0xbfd7b16e	-1.6851022
152	0x4072e737	3.7953622
153	0x3edeed14	0.4354025
154	0xbf7c0dd1	-0.9845858
155	0x40738432	3.8049436
156	0xc229d4ca	-42.4578
157	0xbff4c8d2	-1.9123785
158	0xbf60db09	-0.8783422
159	0x3f84b2a1	1.0367013
160	0xc079f555	-3.9055989
161	0xbf275ec8	-0.65379
162	0x40cda7d7	6.4267383
163	0x405d0291	3.4532816
164	0xc05d5f95	-3.4589589
165	0xc063be7d	-3.5585015
166	0xbeea781b	-0.45794758
167	0xbfddd15a	-1.7329514
168	0xbf06b392	-0.5261775
169	0xbfbc0be8	-1.4691133
170	0xc072cc31	-3.7937129
171	0x4056ae62	3.3543935
172	0xc06d3d5c	-3.70687
173	0x406875fc	3.6322012
174	0x3f34ef99	0.70678097
175	0x41378943	11.471011
176	0x4063f4d3	3.561818
177	0xc179d3b3	-15.614184
178	0xc0f8795f	-7.764816
179	0xc08f9cfb	-4.4879127
180	0xbefc13cc	-0.49233854
181	0x40e63ba2	7.1947794
182	0xbf8d3bf1	-1.1033918
183	0x40678227	3.6173189
184	0xc10a6a2f	-8.650924
185	0xbfb6b3e7	-1.4273652
186	0xbed0dd43	-0.4079381
187	0xc12d561e	-10.833525
188	0x410288ae	8.158369
189	0xc074a2ea	-3.8224435
190	0x40ea0814	7.313486
191	0xc06962b8	-3.6466503
192	0xc0d77fbd	-6.734343
193	0x3e85091f	0.2598352
194	0xc077960f	-3.8685338
195	0xbe605cd0	-0.21910405
196	0xc0816473	-4.043512
197	0x3f12236a	0.5708529
198	0x40d93c72	6.7886286
199	0xc21f115a	-39.766945
200	0x40fa11c7	7.81467
201	0x4145dc1f	12.3662405
202	0x40953261	4.6624
203	0x40ca8494	6.328684
204	0x40a73adc	5.225935
205	0xc0d529c4	-6.6613483
206	0xc120b4a1	-10.044099
207	0x406b40c3	3.6758277
208	0xc0d2ba3c	-6.5852337
209	0xc136b82d	-11.419965
210	0x3e8d2c66	0.27572936
211	0xc09fe45a	-4.996625
212	0x3e0028e7	0.12515603
213	0x3de32e3b	0.11092802
214	0x40ca8b88	6.3295326
215	0xc179a5b9	-15.60296
216	0x40d922ea	6.785512
217	0xc1110916	-9.064718
218	0xbf3cf9d1	-0.7381869
219	0x40cd83a2	6.4223185
220	0x3e21dbd3	0.15806513
221	0x420f87e1	35.882694
222	0xbf9d0620	-1.2267494
223	0x4184260a	16.518574
224	0xc0ca2ec7	-6.31821
225	0x3eac4a62	0.336505
226	0x408f3f40	4.476471
227	0x40d8366d	6.756644
228	0xbf39f288	-0.726357
229	0xc0d39148	-6.6114845
230	0x3ec87d60	0.39158154
231	0xbe10d220	-0.14142656
232	0x3dba0155	0.09082285
233	0x420a8503	34.629894
234	0xc0c99488	-6.2993813
235	0x4091ae76	4.5525465
236	0xc0d522ea	-6.660512
237	0x40d0dc6a	6.526906
238	0xbd710ebd	-0.058851946
239	0x4114dfb1	9.304612
240	0x40d237b2	6.5692987
241	0xc08b865f	-4.3601527
242	0xc150a13e	-13.039366
243	0xc084e97c	-4.1535015
244	0x3f8a282d	1.0793511
245	0x408caa85	4.3958154
246	0x3fa1f81c	1.2653842
247	0x40da33f5	6.8188424
248	0xc13f9091	-11.972795
249	0xc0180de7	-2.3758485
250	0x3f02ae5a	0.5104729
251	0xc0d46adc	-6.6380444
252	0x40262bbe	2.5964198
253	0xc0c992a2	-6.2991495
254	0x406373d7	3.5539453
255	0xc0cda196	-6.425975

net.2.bias f4 [5]
0	0xbee8acd0	-0.45444345
1	0xc0a8c79f	-5.274368
2	0xc06e35ee	-3.7220416
3	0xc0dad6ad	-6.8387055
4	0xbd950627	-0.07276564
